checkpoint.pth (torch_old, 28532 bytes, 6 tensors)

hidden_layers.0.weight f4 [64, 37]
00000000: 0143 ba3d 4d93 763d 4b88 d1be ae2b d3be
00000010: 2023 4c3e 2989 e4bb 9caa 95bd 77f1 503e
00000020: b8a0 dbbe ecca dcbe fc22 1f3e e8b2 b4bd
00000030: 8f99 bcbe 050b 5cbe 5fd1 823d cc81 993c
00000040: 9c54 373e 8915 19be ac4f dfbe a182 25be
00000050: 1995 e53d 6b89 963d d4b4 08bc 4de9 a5bd
00000060: 7259 e1bd 5947 3b3c aea6 413e bf83 9abe
00000070: 7885 50bf bde8 f3be 8b14 c2be 1faf 823e
00000080: d0b3 703c 609c 24be d9b8 0abe e0e8 a2bd
00000090: 6085 4ebd d909 903c c362 863e fde9 49ba
000000a0: 24d6 1dbe 33d7 8bbe 7207 e43d 6f9b 23be
000000b0: c12f 91bd 1da2 f6be 24dd d2be 7629 e53c
000000c0: 94d8 e3bd b06a 993d 885a 963d 90e1 b43e
000000d0: b708 693a 48c8 8e3c 16a2 2fbc 6bf8 cf3d
000000e0: 39ab 533d f43b bbbd 45ff 4abe c644 21be
000000f0: 603b c8bc 560b 203e 2dfb fbbd 8074 ccbd
00000100: 7096 e13d 1fa9 d7bd d111 813d 9a7c ea3b
00000110: f64c 5bbe d9f7 573e 7d3f 023e 9e8a c83e
00000120: 874e 8c3d 86b2 d93c 71bb 3f3e a7da 853c
00000130: 9089 d13d 7f0d d63d 3b12 493e c1db 8bbf
00000140: 273a 3f3e 11e9 7a3e 5cac d23c 0793 9abe
00000150: 404e 943c e392 3ebd 96ff 923d 57ef 423d
00000160: f3c6 ecbd 126a 6bbe bd37 483e f3f9 883e
00000170: 4050 3b3b 9c0d ab3e d977 0ebf bad3 be3d
00000180: 3e10 053e ef2a c8bd 0cfa ccba 4cdc 3a3d
00000190: ca7d d83c f22e 313e 70f3 1dbe 57eb 21bf
000001a0: 92e9 16be 8e7e ce3d a6cd cfbd ddbf d6bd
000001b0: c0b7 f43d 68d8 67bc cbc4 e0bc f70d 483d
000001c0: f4b7 4e3d a398 973d 1a4c 153e 02a6 68be
000001d0: e71f fbbd 1ac1 f3bd f64f 963e 289d a83c
000001e0: 9a0b 8b3e f59b d33b 8d25 4dbd 6ec4 5fbe
000001f0: 0225 d43d 90bb 873d 9880 a6bd c794 c7bb
00000200: 6992 7dbd c009 dbbd b2f5 f3be 206b 153e
00000210: 5806 103d 35c1 2fbe ecce e3bd a59d b9bd
00000220: 81fc c0bd c847 d3bd 342f 513e 5aff cd3d
00000230: 19b8 a63b 868a ac3e 3811 643e 42a8 f0be
00000240: cc6e 25bf 094d cdbf 7fa4 ec3d e854 08bc
00000250: 961e 08be 7f4a 94be 24cc 37be 54f1 4dbe
00000260: 9e6b 803d cf84 cd3d d819 1e3e 82bb e1be
00000270: 1f10 a8be b13c 2cbe a12a 8f3c 644d 7bbe
00000280: eff5 5fbe ad85 87bd 3fc9 e9be 56d7 2bbe
00000290: b894 4abe 39ca 47bd 3db2 5fbe 06af 9a3e
000002a0: 6403 a9bd 8bd6 a3be 18da f43d 6d1c a4bd
000002b0: 0286 53bf 6b0d a03e 2c30 c2be 4956 1fbf
000002c0: 7bf2 f7be 537b 6fbf 584d 473e d347 a9be
000002d0: 53e9 17bf 18c3 a9bd 670c abbd d35a 8f3e
000002e0: e00a 0ebd 5ffa fcbd 775c 15be e5a0 113e
000002f0: 198c 39bd 9888 1c3e ae99 41bb 6b55 403e
00000300: 04eb 933d 4da7 26bf 7f18 3fbf a18e f4bd
00000310: 0351 383e f547 a0be b1b3 20be a9e7 923c
00000320: 9ec4 49be bd02 1ebe 978f 183e 2bdc 5ebd
00000330: 65ee 8ebd 30d9 8abe 940e 063e 1726 af3e
00000340: aca1 1abd 5fcf 9ebe 7929 dbbd 09a6 7ebe
00000350: 0940 a43e c823 cfbd 26bb 443e cfa6 24bd
00000360: 6145 1e3d e1ad 0d3c 2bcf bbbe 233a c0be
00000370: 91b2 5b3d 2af5 d8bd b94b c9bc 4336 60be
00000380: 2a4d a83d 91ff 9ebd 0084 5dbd 4579 c5be
00000390: 231c 8d3c 8b42 db3d d076 c1bd 9ff0 cc3e
000003a0: 1b1b 663d 71c1 89bd 69f5 88bd 1270 7f3e
000003b0: 2f7d b03e fcca 33bd 112a 203d 241c 8439
000003c0: 884b 9dbe 1644 1abd c9ed 1abe 2312 a9be
000003d0: 1f18 873e eafb 70bd 85a3 a83e 529c c4be
000003e0: 059c b9bd 2458 2bbd b081 fc3c b150 7cbe
000003f0: 6a92 093e 2dfe fdbe b71f 1abd 659c ca3c
0.09094811 0.06019907 -0.40924296 -0.41244262 0.19935274 -0.0069743586 -0.07307932 0.20404612
-0.42896056 -0.43123567 0.15540689 -0.08823186 -0.36835906 -0.21488579 0.063875906 0.01873865
0.1790337 -0.14949621 -0.43615472 -0.16163112 0.11210079 0.07350429 -0.008343894 -0.08101139
-0.110033885 0.011430585 0.1891124 -0.3017864 -0.8145366 -0.47638503 -0.37906298 0.25524232
0.014691308 -0.16075277 -0.13547076 -0.07954574 -0.050420165 0.01758282 0.26247224 -0.00077024085
-0.1541372 -0.2731262 0.111342326 -0.15977262 -0.070891865 -0.48170558 -0.41184342 0.027973872
-0.111252934 0.07491052 0.07341486 0.3532834 0.0008889543 0.017429486 -0.010719797 0.10154804
0.051676963 -0.091422945 -0.1982394 -0.15748891 -0.024442375 0.15629324 -0.12303767 -0.09983158
0.11015022 -0.10530304 0.06302226 0.007155967 -0.21416077 0.2109064 0.12719531 0.39168257
0.068509154 0.026574384 0.18723847 0.016339613 0.10231316 0.10451793 0.1963586 -1.0926439
0.18674527 0.2450297 0.025716953 -0.30190298 0.018103719 -0.0465268 0.071776554 0.047591534
-0.11561384 -0.22989681 0.19552512 0.26753196 0.0028581768 0.3340882 -0.55651623 0.093177274
0.12994477 -0.09773814 -0.0015638485 0.045620248 0.026427168 0.17303064 -0.15424895 -0.63249725
-0.14737538 0.10082732 -0.10146646 -0.10485814 0.1194911 -0.014150716 -0.027437588 0.048841443
0.0504684 0.0740216 0.14579812 -0.22719577 -0.12261944 -0.119020656 0.2935788 0.02058275
0.2715729 0.0064578005 -0.05008464 -0.21852276 0.10358621 0.066275716 -0.08129996 -0.0060907337
-0.061907206 -0.10695219 -0.47648388 0.14591646 0.0351623 -0.17163546 -0.111234516 -0.090632714
-0.09423161 -0.103164256 0.20428163 0.1005847 0.005087864 0.33699435 0.22272193 -0.4700337
-0.6462219 -1.6039134 0.11554813 -0.0083210245 -0.13292918 -0.28963086 -0.17948967 -0.2011159
0.06270526 0.10035097 0.15439546 -0.4408837 -0.328248 -0.16820027 0.017476382 -0.24541241
-0.2187116 -0.066172935 -0.4566135 -0.16781363 -0.19783294 -0.04877684 -0.21845336 0.30211657
-0.082526 -0.3199962 0.119556606 -0.08013234 -0.82626355 0.31260237 -0.37927377 -0.62241036
-0.48427185 -0.9354755 0.19463098 -0.3306261 -0.593404 -0.08289164 -0.08351975 0.2799898
-0.03467834 -0.12352442 -0.14586054 0.14221533 -0.045299623 0.15286481 -0.0029541063 0.18782584
0.0722256 -0.6509903 -0.74646753 -0.11941267 0.17999654 -0.313049 -0.15693547 0.01793273
-0.1970391 -0.15430732 0.14898525 -0.054409187 -0.06979064 -0.27118826 0.13091499 0.34208748
-0.03775184 -0.31017587 -0.1070127 -0.24868025 0.32080105 -0.101142466 0.19212016 -0.040198144
0.038640384 0.008647413 -0.36681494 -0.37544355 0.05363709 -0.10593636 -0.02457224 -0.21895699
0.08217843 -0.07763589 -0.054080963 -0.38569084 0.01722533 0.107060514 -0.0944649 0.4002733
0.056178194 -0.06726349 -0.06687433 0.24945095 0.34470508 -0.043894753 0.039102618 0.00025197968
-0.30721688 -0.037662588 -0.1512977 -0.3302165 0.2638559 -0.058833994 0.32937256 -0.38400513
-0.090629615 -0.041832104 0.030823559 -0.24640156 0.13434759 -0.49607983 -0.037627902 0.024732778

hidden_layers.0.bias f4 [64]
00000000: 6adf a83d 1033 acbd cb7e 25be b3b7 9cbd
00000010: 6828 083e 7217 10bd 1027 10be 5205 bc3c
00000020: a48e 97bc d08f 50be 5d60 6dbc d83f 663e
00000030: 45de c43e fc6a 6b3e 532f b9bd 07b5 26be
00000040: 66c1 83bd ad31 2c3d a3cc ab3d 0669 9cbd
00000050: 6f36 27be 2b2f f7bb 19df 813c fc10 98bd
00000060: 818e 2ebe 0914 d93d a720 dcbd db44 7ebe
00000070: 4cc2 3d3e 04d0 273e d57f 4cbd 746d 3ebe
00000080: 7fb4 03be bfc7 993d 802f 18bd 6c83 1e3d
00000090: d235 76bd f05a e2bb 33c8 55bc 4c57 50be
000000a0: ecf7 bdbc e393 063d fa8c 4abd f343 a83d
000000b0: 6b76 3ebd c447 4cbe f49f 8dbd 8914 e1bd
000000c0: bbb7 68be b111 97bc 468b 48be 3759 0b3e
000000d0: eaaa 083d 3524 31bd ecc4 6bbe f76a 06bc
000000e0: b028 0d3e e351 8cbd 6308 39be b56f 8cbc
000000f0: 0b2e 36bd 8454 4d3e 361e c53d efdb 8e3d
0.08245738 -0.08408177 -0.16161649 -0.07652225 0.13296664 -0.03517861 -0.14077401 0.022951756
-0.018500634 -0.2036736 -0.014488307 0.22485292 0.38450828 0.2299003 -0.090422295 -0.16279994
-0.06433372 0.042039562 0.08388641 -0.07637219 -0.16329359 -0.0075434647 0.015853452 -0.074251145
-0.17046548 0.105995245 -0.107484154 -0.24830954 0.1853115 0.16387945 -0.049926598 -0.1859644
-0.12861823 0.07508802 -0.037154675 0.038699552 -0.06010992 -0.0069078133 -0.0130482195 -0.20345801
-0.023189507 0.03285588 -0.049450852 0.08216085 -0.04649965 -0.19949251 -0.06915274 -0.10990245
-0.22726338 -0.018441053 -0.19584379 0.13608252 0.03336612 -0.04324742 -0.23024338 -0.008204213
0.13785052 -0.06851556 -0.18069606 -0.01714311 -0.044477504 0.20051771 0.09624903 0.06975543

hidden_layers.1.weight f4 [64, 64]
00000000: 386f 74be a1c7 bd3d 1a14 a3bc 1d57 c03e
00000010: ee93 803d 6f15 093d 1fa9 06be f12e 18bd
00000020: 3a5d 19bc e906 323e e7c5 c3bc 740e cdbd
00000030: 041b c5bd 45a9 733d 5593 a2bd cfd4 d13d
00000040: a438 9fbc f85d 18bf 211a c53d 1bd8 35bd
00000050: b936 0ebe 6dfa c83d 8acc dc3e 10b2 a0be
00000060: 4f6d 22be 83ea f13d db8a 3e3e 5c8d cc3c
00000070: 364b 263e 7617 81be b7d4 ad3d eb1c 9e3b
00000080: 2d5a 583d d048 243d 11c0 923b 52da b5bd
00000090: 0038 fabe 388d 913e 0307 d5bd 88b3 74bd
000000a0: d221 0bbe 09d0 acbd f1c0 ed3e b944 78bd
000000b0: b4ef 3e3d b01a 9db8 280d 35be fd15 5b3d
000000c0: 8257 0a3d 03cb f73d a6d1 19bd 1dcc 2abe
000000d0: fbe3 c0be 17f3 223f d2d0 e43d d9c0 9cbd
000000e0: 322e f3be c7ba 20be e259 09be 2953 1c3d
000000f0: 2c44 823d 18f0 893d dbfe 2ebe 75ff e2bc
00000100: 0712 38bb 825d cc3d f99a 723d 907f 033e
00000110: b9e2 5cbe e996 743a 6c62 89be 8e82 e73e
00000120: e3bd 4abe e553 493d 2ead 763c c46b c73e
00000130: 1d40 75be 934b dd3d a2a8 25be 2df2 c8bd
00000140: 003f bf3c d2ce 04be e821 a8bd 0483 d8bc
00000150: b293 833d 59b3 00bd 74b8 2ebe 66fe 25bc
00000160: 9451 c93b a3a3 243d 47cc 853e b1a7 843d
00000170: cfb9 923e ce14 2abe ffc3 333e 4bed 213e
00000180: c065 20be fd61 9a3e 59a1 83be 5489 913e
00000190: 0b16 d2be 6dff 35be e46b 0ebe 616c 43bd
000001a0: 1c84 87bd 386c 573e 819a f23d 2bc4 313c
000001b0: eefe 8fbd 5c73 153e 2b98 adbe aa45 99bd
000001c0: c16c cfbd 1976 b63c 826f 4a3d 0ac6 893e
000001d0: a7d7 0a3c d37e 72be 2f34 af3d e1b5 753d
000001e0: c73d 9fbd f617 07be f1c7 0e3e 53a7 a1bd
000001f0: 8022 413b 9685 59bd 4869 d13d 3bdd b23d
00000200: 9e38 4c3e db6d b2bd c742 82bd ab35 813e
00000210: d66d 34bf 85eb b0bd 4e15 e73d c6a5 a7bd
00000220: ab74 0d3e 17f4 76be 3e4a 6d3d 301f 3abe
00000230: fee7 943d f8cc acbd 10da bebe 6018 babe
00000240: 2d10 c2bd 3924 a63e a23f da3d aaef 27be
00000250: 1b36 fdbe 0487 df3c 3e37 c83d 7fcd afbe
00000260: 8fdf 70be ea3e fe3e 9d92 003e cff6 fcbd
00000270: ab41 85bd d90a 443e db94 b1bd e535 4f3d
00000280: f899 b4be 9ce4 edba 3d68 0e3d 16a8 05be
00000290: 8678 84bd 378e 2ebd b4df f3bd ff70 fe3d
000002a0: bb40 a43d 42cb 70be d3b5 d2be fddf db3d
000002b0: 1910 853d bf41 6b3e dc57 01be 7f09 21be
000002c0: 972f 50be 0361 b4bd cbe3 1c3d b4ea adbe
000002d0: 2b13 72be 17bd d63e 9d9b 9f3d f8b8 043e
000002e0: 2ead 5fbe 42af 30be 6b41 303e 1f75 0bbe
000002f0: 314c 73be d8df 21be 56bb 463f 5c61 c0bd
00000300: 8913 efbc 1e82 9abd 540a 9e3d 3a8e 2ebd
00000310: 5d34 f43d fff3 b9be 6387 7fbd a6c3 833d
00000320: 941f c73d e821 bfbd d641 803d 671e 59bd
00000330: 9617 2abe 36fc 8f3d dc82 033c a4ec 57be
00000340: d574 9d3a 4526 0bbe 2a16 383e 1cea 09bd
00000350: d731 e53d 788a 493d 0935 b6be 9684 253e
00000360: 25ff f93d 21a3 f5be a187 a53e 2638 503e
00000370: e236 d6bb c62e c1be e71f 58be 63ea 1f3e
00000380: fdfa 133e d5e5 4abd e1c6 7f3d 0f6d 413e
00000390: 7e20 633c fe0f 75be b151 8c3f 2fcf 1dbd
000003a0: a863 d0be d5c6 88bd 24d8 833e 6db8 9fbe
000003b0: 6646 38be 0310 093e c951 8fbc 7492 1cbf
000003c0: c0a9 0abc ae04 093d 5ae5 b73d 2bd5 f7bd
000003d0: 1e7b 9fbd 237e 88be f342 1bbe 26da 453e
000003e0: d192 26be 6c53 28be 253d 02be f5a7 86be
000003f0: 1fd1 e7be 7eba f8bc 5993 a33e cd5b 9cbe
-0.23870552 0.09266592 -0.019907046 0.37566462 0.06278215 0.033467706 -0.13150452 -0.03715414
-0.009360606 0.17385449 -0.023898078 -0.10012522 -0.096242934 0.0594876 -0.079382576 0.10245668
-0.019436188 -0.59518385 0.09624124 -0.044395547 -0.13888063 0.0981339 0.431248 -0.3138585
-0.1586201 0.11812308 0.18607657 0.02496975 0.16239628 -0.25213212 0.08487838 0.0048252246
0.052820373 0.040108502 0.0044784625 -0.08879532 -0.4887085 0.28428054 -0.10401728 -0.059741527
-0.1358712 -0.08438117 0.46436265 -0.060612414 0.046615317 -7.491314e-05 -0.176808 0.053487767
0.03377486 0.12099268 -0.037553452 -0.16679426 -0.37673935 0.63652176 0.11172642 -0.0765397
-0.47496182 -0.1569625 -0.13413194 0.038165245 0.06360659 0.067352474 -0.17089407 -0.027709702
-0.0028086917 0.09978773 0.059229825 0.1284163 -0.21570863 0.00093303487 -0.26832902 0.45216793
-0.19798999 0.049152274 0.015055938 0.38949406 -0.23950239 0.1080543 -0.1617761 -0.09811816
0.02334547 -0.1296952 -0.08209592 -0.02642966 0.06424655 -0.03142104 -0.17062551 -0.010131454
0.006143758 0.04019512 0.26132414 0.06477297 0.28657386 -0.16609499 0.17555235 0.15813176
-0.15663815 0.30152884 -0.25709036 0.28425086 -0.41032442 -0.17773218 -0.13908345 -0.04771078
-0.06616995 0.21037376 0.118458755 0.010849993 -0.07031046 0.14594787 -0.33905157 -0.074839905
-0.10128165 0.02227311 0.04942275 0.26908904 0.008474267 -0.23681192 0.08554875 0.059987906
-0.07775455 -0.13192734 0.13943459 -0.07893243 0.0029470026 -0.053105913 0.10225159 0.087336026
0.19943473 -0.087123595 -0.06360393 0.25236258 -0.70480096 -0.08638672 0.112833604 -0.08185916
0.13814037 -0.2411655 0.05793213 -0.1817596 0.072708115 -0.08437532 -0.37275743 -0.36346722
-0.094757415 0.3244951 0.10656668 -0.16400018 -0.49455342 0.02728606 0.097761616 -0.3433647
-0.23522781 0.49657375 0.12555929 -0.123517625 -0.06506666 0.19144763 -0.0867097 0.050588507
-0.3527372 -0.0018149796 0.034767378 -0.13052401 -0.064683005 -0.042616095 -0.11907902 0.12423896
0.08020159 -0.23515037 -0.41154346 0.10736082 0.06497211 0.22974299 -0.12631172 -0.15726279
-0.20330654 -0.08807566 0.038303178 -0.33968127 -0.23640124 0.4194114 0.07793353 0.12961185
-0.21843407 -0.17254356 0.17212455 -0.13618897 -0.23759533 -0.15808046 0.776296 -0.0939357
-0.02918412 -0.07544349 0.07716814 -0.042616107 0.1192405 -0.36318967 -0.062384974 0.06433801
0.0972282 -0.09332639 0.06262557 -0.05300751 -0.1661056 0.07030527 0.008026805 -0.21086365
0.0012012968 -0.13588817 0.17977205 -0.03367053 0.11191147 0.04920432 -0.35587338 0.16163859
0.12206868 -0.4797602 0.3233004 0.20333919 -0.0065373043 -0.37730998 -0.2110592 0.15616755
0.14451213 -0.04953559 0.062445525 0.18889259 0.013862727 -0.23931882 1.096243 -0.038527664
-0.40701032 -0.06678549 0.2575084 -0.31195393 -0.17995605 0.13385014 -0.017495053 -0.6116097
-0.008463323 0.03345173 0.08979292 -0.121012054 -0.077871546 -0.26658735 -0.15162258 0.19321498
-0.16266944 -0.16438073 -0.12718637 -0.26300016 -0.45276734 -0.030362364 0.31948355 -0.30538788

hidden_layers.1.bias f4 [64]
00000000: 4985 453d 5463 4cbd 7cd9 d13d e055 34bd
00000010: 348d e33e f2fa 0ebe 039f 003c 017b 08bd
00000020: d5d8 f13e 6efb 2b3f 0214 cdbd 51ba 323d
00000030: 0c74 2c3e 15ce 17be 640f 3ebe 5ec5 253d
00000040: ef35 d63e 9a32 e8bd 8227 85be 01f6 bc3e
00000050: e5de e23e 6af8 f13e 280c aabe 2154 f9bd
00000060: 2e96 18bd d64d 86be ee0c ff3d 39d4 b9bd
00000070: 7edd c8bb 88a1 a13d ab16 813c a61d 653e
00000080: 6836 92bd 1710 d63d 2db2 873d 8dfe c3bd
00000090: c23a a43c 1526 69be 0dd0 a53d 6ba9 703d
000000a0: 807c 03be 410a 303f 7df6 143f b75f 0bbe
000000b0: 8ed7 963d fdc0 2fbe ecf4 0c3f 5116 8dbd
000000c0: ae5e ea3d 2ea3 02be 6303 b13b 2364 203f
000000d0: 41a0 a43d 547d 48be 1223 583e b216 7cbd
000000e0: 35fb 33be dcfe 1bbe 16dc 52be 8576 fa3c
000000f0: ec9f de3d 6127 f93e 8013 f0bd f98a 23bd
0.048222814 -0.049899414 0.1024656 -0.04402721 0.44443667 -0.13962916 0.007850411 -0.03332043
0.47235742 0.67180526 -0.10013582 0.043634716 0.16841143 -0.14824708 -0.18560559 0.040471427
0.41838023 -0.113377765 -0.26006705 0.36906436 0.4431068 0.47259837 -0.332124 -0.121742494
-0.037252598 -0.2623126 0.12453638 -0.090736814 -0.0061299196 0.07892138 0.01575788 0.22374591
-0.071392834 0.10452288 0.06625781 -0.09570036 0.02004755 -0.22768433 0.08096323 0.05875532
-0.12840462 0.68765646 0.5818861 -0.13610731 0.073653325 -0.17163463 0.5506122 -0.06889022
0.1144384 -0.1275756 0.005402015 0.62652797 0.080383785 -0.19579059 0.21107128 -0.06154508
-0.17576297 -0.1523394 -0.20591769 0.030574093 0.108703464 0.48662856 -0.11722469 -0.039927457

output.weight f4 [4, 64]
00000000: abb5 4e3e ce66 9cb9 9b11 133e 7aa1 afbd
00000010: 406b 5b3e a94d 253e 3c17 713e dc34 e0bd
00000020: 9fff 263e 6e4a 4d3e 970e 6cbe dbc7 6bbe
00000030: f47e a23c 9fd2 cb3d 3deb fabe f613 c6bd
00000040: 7950 f03d d12a 6fbe ba21 cebe d078 2b3e
00000050: f4ab cb3d 3ee9 673e 8766 f9bd 7561 08be
00000060: 44d6 213d 9eca b1be 1d0e bfbe 4239 1b3e
00000070: 67a1 5f3e be67 f03e 5b04 fabe e586 b33d
00000080: dd54 403e 3695 ab3e 714f 073d eb88 2fb9
00000090: 0f26 583e 3656 9abe e617 123e 790d 323e
000000a0: bcff 1ebf b524 483e 4c82 3d3e a6fc f2bd
000000b0: ba8b da3e 75d1 11be 0331 793e 12c2 993e
000000c0: ce50 363e 340c b63e 64e1 973e ab95 393e
000000d0: 35e9 473e 4d94 adbd ff25 963d 3632 a3bc
000000e0: 3997 e3be 1b04 4c3e ca0a 3dbe 60ad b23d
000000f0: 159e 0a3f 18a5 5a3e d410 58bd b431 0e3d
00000100: 305a 993e 5180 4b3e 6b09 833e 72d0 f039
00000110: 54ca 403e 71fe 96bc 9b53 8c3e 1ed4 e33d
00000120: 5228 143e edbc 763e cc17 61be 68d6 47be
00000130: 11e3 a13c 24fc 733e 7554 2dbd ce2a ae3d
00000140: ffac 483e 791f f63d f631 e0bd a011 1e3e
00000150: 9223 4b3e 2890 7b3e 32b9 97bd 9f07 8bbd
00000160: 6130 f73c 17b7 59be 997f 82bb 4403 db3e
00000170: ed1e fd3e 19ee ca3e 7ea0 92bc 20e5 0c3e
00000180: 9234 b7be 754d 2b3e 5a5e 9e3d 9e57 54bd
00000190: 9e3c 183e 2beb 61be 12dd 1b3e f8d9 063e
000001a0: e608 b5bd 8689 4d3e 727e f83d 4e09 08be
000001b0: 4c25 de3e f077 c8be f275 813e c412 fb3e
000001c0: 04cb babb 4271 873e dfbb 7d3e 37e2 ff3d
000001d0: 9348 983e fef9 9f3d fb43 773d 9de5 813d
000001e0: da2e debc 344f 99be 764b 75be 9f2d fa3d
000001f0: 6217 49be 756b d53d ca8a 47bd 2016 2e3d
00000200: 79d4 693e 2979 703e 1812 edbd 71bc 4c3f
00000210: 02f7 643e 217d af3e fb5b 8c3e 4edf 883d
00000220: 4152 dd3d 3fd2 353e bbf9 a9be 6b0b 1f3e
00000230: 67c1 833e c70a d0be 1a1d 863c ced4 6d3e
00000240: 01d7 da3d c59c 473e 3ede 2cbe 8ec7 be3d
00000250: d262 d73d 6e2a 993e 8b51 6abe 6d50 6b3b
00000260: 9edb c33e a42f 593e 5102 24be f2ab cbbd
00000270: 78f1 213f 4fe4 4d3d 1e4e b1be c6f1 b33b
00000280: 06db b1be 2df9 5e3e c884 663e eec4 c83d
00000290: 860f 913d 8683 23be aa19 333e 16a9 923d
000002a0: e18c a9be afdd 833e e348 683e 7f51 8dbe
000002b0: d7e0 633e fe1e b2bd 7d9d 603e 2c5f d43e
000002c0: fbdb 313d 21d9 e03e 001b d23d 3833 893e
000002d0: 987d 333d 1905 813e 330a 3c3e 97fc 2dbd
000002e0: b505 3ebf 77c8 6d3e 485c 30be 4d2b b93d
000002f0: dd96 19bf 7df1 3a3e 8e3c a2be 995b fdbc
00000300: bcfd e13e ad56 853e dab6 7f3e adf1 803e
00000310: 7ce5 d03d 3f9f 08bf be43 223e b94d 933e
00000320: e8ff 393e 96f0 7c3e 11b3 63bc b003 6dbe
00000330: 60ec 613e c8dd 8fbe 80b1 03bf 1943 ff3c
00000340: 62c5 843e eba9 c13e e3f4 7bbd 416f 7d3e
00000350: 22aa 913d aab7 833e b785 90be 60a3 393e
00000360: 1266 493e 15c4 7fbe f05b 23bf 0353 2a3f
00000370: 4631 033e e47c c93d af73 9bbe 66d6 f23c
00000380: 63ff 8cbe 3cd2 b5bd 7300 cf3d 0380 7e3c
00000390: 89a6 94bd db16 43bd ddfe 273f f0d7 d23e
000003a0: 8493 92be 2bb5 713e 37bd 493e cecf bebd
000003b0: 0bf3 f63e eaf0 afbe 9e33 473e f5ee 8f3e
000003c0: 3d83 35be 6a6d 843d dbaa a73e 7481 303e
000003d0: 22ae 643b 74a1 2cbe fe5a a43d 96f9 6c3e
000003e0: d68c fc3d 28b0 05bf 1f01 9abe 627d e33d
000003f0: dd7d a8be 0ffb ee3d a7a4 3fbd 74f8 973e
0.20186488 -0.00029831234 0.14362185 -0.08575721 0.21427631 0.16142906 0.2354402 -0.10947582
0.16308449 0.20047924 -0.2305244 -0.23025458 0.019835927 0.09952282 -0.49007598 -0.09671776
0.11734099 -0.23356177 -0.40260106 0.16745305 0.09944907 0.22647569 -0.12177759 -0.13318427
0.03951098 -0.34724897 -0.37315455 0.15158561 0.21838914 0.4695415 -0.48831448 0.087659635
0.18782373 0.33512276 0.033034746 -0.00016740306 0.21108268 -0.301439 0.14266929 0.17387952
-0.6210897 0.19545253 0.18506736 -0.11864595 0.42684728 -0.14240058 0.24335103 0.30030876
0.17804262 0.35556185 0.29664147 0.181235 0.19522555 -0.08475552 0.07331466 -0.019921403
-0.4445131 0.19923441 -0.18461147 0.08724475 0.54147464 0.21352041 -0.052750424 0.03471537
0.2995162 0.19873168 0.25593123 0.0004593167 0.18827182 -0.018431874 0.27407536 0.111244425
0.14468506 0.24095507 -0.21981734 -0.19515383 0.019761594 0.23826653 -0.042316873 0.08504258
0.19597243 0.12017722 -0.10947029 0.15436411 0.19837788 0.2456671 -0.0740837 -0.06788563
0.030174436 -0.2126125 -0.003982496 0.4277593 0.49437657 0.3963478 -0.017898794 0.13759279
-0.35782295 0.16728766 0.0773284 -0.05184137 0.14866874 -0.22062366 0.1522105 0.13169086
-0.08839588 0.20071992 0.121334925 -0.132848 0.4338783 -0.39154005 0.25285298 0.49037755
-0.005700471 0.26453596 0.24778698 0.12494319 0.2974287 0.07811354 0.060367566 0.063426234
-0.02712195 -0.2994324 -0.23954567 0.12215733 -0.19637826 0.104208864 -0.048716344 0.04250157
0.22834958 0.23483719 -0.11575717 0.7997504 0.22359851 0.34275153 0.27413926 0.06683217
0.10806704 0.17755984 -0.33198342 0.155317 0.25733492 -0.40633222 0.016371299 0.2322571
0.1068554 0.19493397 -0.16881654 0.09315406 0.10516895 0.29915184 -0.22882669 0.0035906092
0.38253492 0.2120958 -0.16016509 -0.09944905 0.6325908 0.05026656 -0.3462991 0.005491468
-0.34737414 0.2177474 0.2251159 0.09803186 0.07083039 -0.15968141 0.17490259 0.07161157
-0.33115295 0.2575507 0.22684054 -0.2760124 0.22253738 -0.086973175 0.21935077 0.4147886
0.04342268 0.43915656 0.10259056 0.2679689 0.043820947 0.25199202 0.18363266 -0.042477217
-0.7422746 0.23221003 -0.17222703 0.09041462 -0.59995824 0.18256183 -0.31686825 -0.030927466
0.44138896 0.2604269 0.24972096 0.25184384 0.10200021 -0.5336799 0.15846154 0.28770235
0.18164027 0.24701151 -0.013897673 -0.23145938 0.22062826 -0.28098893 -0.5144272 0.031159924
0.2593184 0.3782495 -0.06151284 0.24749471 0.071125284 0.25726062 -0.28227016 0.18128729
0.19667843 -0.24977143 -0.6381216 0.66532916 0.12811765 0.09838274 -0.30361697 0.029643249
-0.27538595 -0.0887799 0.101075076 0.01553345 -0.072583266 -0.04762922 0.65623266 0.41180372
-0.2862817 0.23604266 0.19701086 -0.09316979 0.48232302 -0.3436349 0.19453284 0.28111997
-0.17725845 0.064661816 0.3274754 0.17236882 0.003489383 -0.16858464 0.08025168 0.23142084
0.1233155 -0.5222192 -0.3007898 0.11107899 -0.32908526 0.116689794 -0.046787884 0.29681742

output.bias f4 [4]
00000000: fb1c 083f 36bd db3e 05f9 983e 590c af3e
0.5316922 0.42917794 0.29877487 0.34189108
